…
    model.add(Bidirectional(LSTM(128, kernel_initializer='Orthogonal', return_sequences=True)))
    model.add(Dropout(.5))

    model.add(Bidirectional(LSTM(128, kernel_initializer='Orthogonal', return_sequences=True)))
    model.add(Dropout(.5))

    model.add(Dense(char_to_number.vocabulary_size()+1, kernel_initializer='he_normal', activation='softmax'))

    model.summary()

    Model: "sequential_1"
    _________________________________________________________________
     Layer (type)                Output Shape              Param #   
    =================================================================
     conv3d_3 (Conv3D)           (None, 75, 46, 140, 128)  3584      
                                                                     
     activation_3 (Activation)   (None, 75, 46, 140, 128)  0         
                                                                     
     max_pooling3d_3 (MaxPooling  (None, 75, 23, 70, 128)  0         
     3D)                                                             
                                                                     
     conv3d_4 (Conv3D)           (None, 75, 23, 70, 256)   884992    
                                                                     
     activation_4 (Activation)   (None, 75, 23, 70, 256)   0         
                                                                     
     max_pooling3d_4 (MaxPooling  (None, 75, 11, 35, 256)  0         
     3D)                                                             
                                                                     
     conv3d_5 (Conv3D)           (None, 75, 11, 35, 75)    518475    
                                                                     
     activation_5 (Activation)   (None, 75, 11, 35, 75)    0         
                                                                     
     max_pooling3d_5 (MaxPooling  (None, 75, 5, 17, 75)    0         
     3D)                                                             
                                                                     
     time_distributed_1 (TimeDis  (None, 75, 6375)         0         
     tributed)                                                       
                                                                     
     bidirectional_2 (Bidirectio  (None, 75, 256)          6660096   
     nal)                                                            
                                                                     
     dropout_2 (Dropout)         (None, 75, 256)           0         
                                                                     
     bidirectional_3 (Bidirectio  (None, 75, 256)          394240    
     nal)                                                            
                                                                     
     dropout_3 (Dropout)         (None, 75, 256)           0         
                                                                     
     dense (Dense)               (None, 75, 41)            10537     
                                                                     
    =================================================================
    Total params: 8,471,924
    Trainable params: 8,471,924
    Non-trainable params: 0
    _________________________________________________________________

    5*17*75

    6375

    predictor = model.predict(value[0])

    1/1 [==============================] - 3s 3s/step
…
